…
sync_bn=False, te_max_sample_points=2048, time_length=0.5, tr_max_sample_points=2048, train_T=True, use_adjoint=True, use_deterministic_encoder=True, use_latent_flow=True, val_freq=10, viz_freq=1, weight_decay=0.0, world_size=1, zdim=128)
Initialization in ConcatSquashLinear dim_in, dim_out, dim_c  3 512 128
Initialization in ConcatSquashLinear dim_in, dim_out, dim_c  512 512 128
Initialization in ConcatSquashLinear dim_in, dim_out, dim_c  512 512 128
Initialization in ConcatSquashLinear dim_in, dim_out, dim_c  512 3 128
ODEnet initialization  ModuleList(
  (0): ConcatSquashLinear(
    (_layer): Linear(in_features=3, out_features=512, bias=True)
    (_hyper_bias): Linear(in_features=129, out_features=512, bias=False)
    (_hyper_gate): Linear(in_features=129, out_features=512, bias=True)
  )
  (1): ConcatSquashLinear(
    (_layer): Linear(in_features=512, out_features=512, bias=True)
    (_hyper_bias): Linear(in_features=129, out_features=512, bias=False)
    (_hyper_gate): Linear(in_features=129, out_features=512, bias=True)
  )
  (2): ConcatSquashLinear(
    (_layer): Linear(in_features=512, out_features=512, bias=True)
    (_hyper_bias): Linear(in_features=129, out_features=512, bias=False)
    (_hyper_gate): Linear(in_features=129, out_features=512, bias=True)
  )
  (3): ConcatSquashLinear(
    (_layer): Linear(in_features=512, out_features=3, bias=True)
    (_hyper_bias): Linear(in_features=129, out_features=3, bias=False)
    (_hyper_gate): Linear(in_features=129, out_features=3, bias=True)
  )
)
Number of trainable parameters of Point CNF: 927513
Initialization in ConcatSquashLinear dim_in, dim_out, dim_c  128 256 0
Initialization in ConcatSquashLinear dim_in, dim_out, dim_c  256 256 0
Initialization in ConcatSquashLinear dim_in, dim_out, dim_c  256 128 0
ODEnet initialization  ModuleList(
  (0): ConcatSquashLinear(
    (_layer): Linear(in_features=128, out_features=256, bias=True)
    (_hyper_bias): Linear(in_features=1, out_features=256, bias=False)
    (_hyper_gate): Linear(in_features=1, out_features=256, bias=True)
  )
  (1): ConcatSquashLinear(
    (_layer): Linear(in_features=256, out_features=256, bias=True)
    (_hyper_bias): Linear(in_features=1, out_features=256, bias=False)
    (_hyper_gate): Linear(in_features=1, out_features=256, bias=True)
  )
  (2): ConcatSquashLinear(
    (_layer): Linear(in_features=256, out_features=128, bias=True)
    (_hyper_bias): Linear(in_features=1, out_features=128, bias=False)
    (_hyper_gate): Linear(in_features=1, out_features=128, bias=True)
  )
)
Number of trainable parameters of Latent CNF: 134145
Total number of data:2832
Min number of points: (train)2048 (test)2048
Total number of data:405
Min number of points: (train)2048 (test)2048
Start epoch: 0 End epoch: 4
dx.size for ODEnet dim 0  32
dx.size for ODEnet dim 1  128
context.size for ODEnet dim 0  32
context.size for ODEnet dim 1  1
context.size in ConcatSquashLinear dim 0  32
…
